Neural_ODE/Models/Inv_Double_Gyre/KNODE/model.pth (torch, 5447 bytes, 5 tensors)

net.0.weight f4 [164, 2]
0	0x3d42d883	0.047569763
1	0x3d2cc5b4	0.042180732
2	0x3e225887	0.15854083
3	0x3e90dd20	0.28293705
4	0x3d4abe2b	0.049497765
5	0x3e0f7d88	0.1401273
6	0x3df2721d	0.11838172
7	0xbdd1af44	-0.102385074
8	0x3d88b2ca	0.06674726
9	0x3d57856a	0.052617468
10	0xbe0406c8	-0.12893212
11	0x3cb7bdb4	0.022429325
12	0x3d41bbb4	0.04729815
13	0x3d50ae99	0.05094776
14	0x3e44e57c	0.19228166
15	0xbe27460f	-0.16335319
16	0x3dfbb67b	0.12290665
17	0x3e0fa7f9	0.1402892
18	0xba86cc14	-0.0010284209
19	0x3dd7ddcc	0.10540351
20	0xbd4ea3e4	-0.050449267
21	0x3d2f8f0a	0.042861022
22	0x3d451b04	0.048121467
23	0x3d63bb17	0.055598345
24	0xbb9941ab	-0.0046770177
25	0x3f8ff409	1.1246349
26	0xbd9c327b	-0.07626816
27	0x3d35760e	0.04430204
28	0xbe134cbe	-0.14384744
29	0x3eaed923	0.34150037
30	0xbd5a9ac7	-0.053370263
31	0x3d672db4	0.05644007
32	0x3d458d35	0.04823037
33	0x3d53f37e	0.051745884
34	0x3d5e719b	0.05430756
35	0x3e14b868	0.1452347
36	0xbd81db81	-0.06340695
37	0xbd4680b2	-0.048462577
38	0x3c7ed350	0.0155533105
39	0x3f6282f8	0.8848109
40	0x3d4c42f1	0.049868528
41	0x3d27ffc7	0.041015413
42	0xbd81b00c	-0.063324064
43	0x3d3e2e99	0.046431158
44	0x3d4b0b98	0.049571604
45	0x3d26f38f	0.04075962
46	0x3dd35f9c	0.103209704
47	0x3dc96843	0.098343395
48	0xbe2eb216	-0.17060122
49	0x3e1aa62d	0.15102454
50	0x3d4cea04	0.050027862
51	0xbe1b7b47	-0.15183745
52	0x3d504f7e	0.05085706
53	0xbd2ea6b1	-0.042639438
54	0xbd3fb889	-0.046806846
55	0xbd2615a9	-0.040548
56	0xbd581fee	-0.052764826
57	0x3d34b8d0	0.044121563
58	0xbd4ab0c9	-0.049485
59	0x3e1aa8d5	0.15103467
60	0xbda3720e	-0.079807386
61	0x3dd45ec2	0.10369636
62	0x3dcacab3	0.09901943
63	0x3d030740	0.031989336
64	0xbd446d9c	-0.047956094
65	0xbd510956	-0.051034294
66	0xbc032edf	-0.00800678
67	0x3f5317d5	0.8245824
68	0x3d381a9b	0.044947248
69	0x3d536e40	0.051618814
70	0xbd83cc9b	-0.0643551
71	0x3d35a3da	0.044345714
72	0x3da75d11	0.08172048
73	0xbd8aa960	-0.06770587
74	0xbd647122	-0.055771954
75	0xbd3d24e6	-0.046177767
76	0xbddcf8eb	-0.10789665
77	0xbd747e16	-0.059690557
78	0xbe069aba	-0.13144961
79	0x3d663467	0.05620232
80	0xbc333053	-0.010936814
81	0xbf4a1fc5	-0.78954726
82	0x3d4ec5ba	0.050481535
83	0x3d3dd7de	0.046348445
84	0x3dacdfb5	0.08441106
85	0xbd2400b5	-0.040039737
86	0xbdb61337	-0.08890384
87	0x3ddff9ae	0.109362945
88	0xbc4c304f	-0.01246269
89	0xbf6dece7	-0.9293961
90	0x3df5d7d5	0.12004057
91	0x3ddf5e17	0.10906618
92	0x3cfb1022	0.030647341
93	0xbe995028	-0.29943967
94	0xbd44c498	-0.04803905
95	0xbd4213fa	-0.047382332
96	0xbd50b644	-0.050955072
97	0x3d4dfe51	0.050291363
98	0xbe21464c	-0.15749472
99	0xbcf6ec22	-0.030141894
100	0xbde4ba6d	-0.111683704
101	0xbe22fe7b	-0.15917389
102	0x3d318b3c	0.043345675
103	0xbd45bbc8	-0.048274785
104	0x3d81ee18	0.06344241
105	0xbf707543	-0.9392893
106	0x3d5aaab2	0.053385444
107	0xbd465673	-0.04842229
108	0xbd44d255	-0.04805215
109	0xbd4e35ec	-0.050344393
110	0x3d513cbc	0.05108331
111	0xbd31dbd9	-0.043422554
112	0x3dea1e7c	0.11431596
113	0x3daa8026	0.083252236
114	0x3d5238fe	0.051323883
115	0x3d42d558	0.04756674
116	0x3d5a02b1	0.053225223
117	0xbd6e4e76	-0.058180295
118	0xbddab1bb	-0.10678431
119	0xbd6f30d7	-0.058396187
120	0xbddbdc28	-0.10735351
121	0xbdca735f	-0.098852865
122	0xbd25e6f3	-0.040503453
123	0xbd63e217	-0.055635538
124	0xbd4ef441	-0.050525907
125	0x3d2c669e	0.04209005
126	0xbd14e188	-0.036347896
127	0x3d913776	0.070906565
128	0x3d04d8fc	0.032433495
129	0x3d8c628e	0.06854735
130	0xbde8d4ce	-0.11368714
131	0xbdfad026	-0.122467324
132	0xbdb8506d	-0.08999715
133	0xbed00a09	-0.40632656
134	0x3db987c8	0.09059101
135	0xbe08c813	-0.13357572
136	0x3df32fac	0.11874327
137	0x3ded20ca	0.1157852
138	0xbd364bb4	-0.04450579
139	0xbd73f4e8	-0.059559733
140	0xbd50cb2c	-0.05097501
141	0x3d2f3c55	0.042782146
142	0xbd82641c	-0.063667506
143	0xbd3f67a3	-0.046729695
144	0x3d4d16b5	0.050070483
145	0x3d3b2d46	0.045697473
146	0xbd46ef83	-0.04856826
147	0xbd62e738	-0.05539629
148	0xbd3300d2	-0.043701954
149	0xbd43efa7	-0.047835972
150	0xbcff5f88	-0.031173483
151	0x3d5e78bb	0.054314356
152	0x3dacc3a8	0.08435756
153	0xbde73726	-0.112898156
154	0xbda1c786	-0.07899384
155	0x3d640462	0.055668242
156	0xbd5e8486	-0.054325603
157	0x3d5b159f	0.053487416
158	0xbdde1f1d	-0.10845778
159	0x3dbaf785	0.09129242
160	0x3d7bfd10	0.061520636
161	0x3dcfe3ac	0.10150847
162	0xbe1c081a	-0.15237466
163	0xbefe27b9	-0.4963968
164	0x3dc14369	0.094366856
165	0x3da98320	0.08276963
166	0xbd34b29b	-0.044115644
167	0x3d5cfce6	0.05395212
168	0xbda91641	-0.08256198
169	0xbd41fcee	-0.047360353
170	0x3d265466	0.040607832
171	0xbdd62938	-0.104570806
172	0xbd4f51b8	-0.050615042
173	0x3d2c4ddf	0.04206645
174	0xbe24870f	-0.16067146
175	0x3ec72362	0.38894182
176	0xbc0ff6ad	-0.008786839
177	0xbfab2a64	-1.3372312
178	0xbd3b3c80	-0.045711994
179	0xbd33d617	-0.043905344
180	0x3d03496d	0.032052446
181	0x3d8d7785	0.06907562
182	0xbdbc6584	-0.0919905
183	0x3e2fb34c	0.1715824
184	0x3d87f1ed	0.066379406
185	0x3e2f83f6	0.17140183
186	0xbd564163	-0.05230845
187	0x3d245ef3	0.040129613
188	0xbdfe9ac8	-0.12431866
189	0x3d8a70ba	0.06759782
190	0xbd4a9078	-0.049454182
191	0x3d335339	0.04378054
192	0xbdded369	-0.10880167
193	0x3e4c3850	0.19943357
194	0x3d520a07	0.051279094
195	0x3d6c70b7	0.05772468
196	0x3d49dc34	0.049282268
197	0xbd4e0cca	-0.050305165
198	0x3d1e348d	0.038624335
199	0xbda67872	-0.08128442
200	0x3a408c38	0.0007345113
201	0xbf86f0df	-1.0542258
202	0xbe1d1050	-0.15338254
203	0x3efbfe42	0.4921742
204	0x3e0f2169	0.13977589
205	0xbe0ae7b7	-0.13564955
206	0x3da67b67	0.08129006
207	0xbdd5d6cf	-0.10441362
208	0xbc20d5ea	-0.009816626
209	0xbf927a11	-1.1443502
210	0x3d666285	0.0562463
211	0x3d32c896	0.043648325
212	0x3dab1af0	0.08354747
213	0xbd8c4626	-0.06849317
214	0xbe4e46e5	-0.20144232
215	0xbe72b2f5	-0.23701079
216	0x3d451d5d	0.048123706
217	0x3d478cd1	0.048718277
218	0xbdf213ad	-0.11820159
219	0xbe064ca8	-0.1311518
220	0x3e003ba3	0.1252275
221	0xbe352791	-0.17690875
222	0xbd61a49e	-0.05508863
223	0xbe1be6b8	-0.15224731
224	0xbb8ad73c	-0.0042370837
225	0x3f9513c8	1.1646662
226	0x3df5b61d	0.11997626
227	0x3de789ab	0.11305555
228	0x3d0f765e	0.035024993
229	0x3da56287	0.08075433
230	0xbdf9ff30	-0.12206876
231	0xbd1af123	-0.037827622
232	0xbde00fe4	-0.10940531
233	0xbd954d18	-0.07290095
234	0xbd558fee	-0.052139215
235	0xbd2f9054	-0.04286225
236	0x3e011f13	0.1260951
237	0xbd8c426e	-0.06848608
238	0x3c077490	0.008267537
239	0xbf43ed30	-0.76533794
240	0x3d6ddc5c	0.05807148
241	0x3f5417fb	0.8284909
242	0x3d3437fb	0.0439987
243	0xbd6988e7	-0.057015326
244	0xbd2a46fd	-0.041571606
245	0x3d6aa1bc	0.05728315
246	0x3d55258a	0.052037753
247	0xbe23cc15	-0.1599582
248	0xbda2ef60	-0.079558134
249	0x3d650694	0.055914477
250	0x3c44714f	0.0119899055
251	0xbf4ff5fe	-0.8123473
252	0xbd4c27f6	-0.049842797
253	0xbe122845	-0.14273174
254	0x3d616c43	0.055034887
255	0x3e1a7225	0.15082605

net.0.bias f4 [164]
0	0xbfee7723	-1.8630108
1	0x40186db3	2.3816955
2	0x3f5b7009	0.8571783
3	0x3f9536d0	1.1657352
4	0xbfa337d2	-1.275141
5	0x3fbdee72	1.4838393
6	0xc0118fa0	-2.2743912
7	0xbe011cc5	-0.12608631
8	0xbf864bdf	-1.0491904
9	0xc019bf9e	-2.4023204
10	0xc000c009	-2.011721
11	0xc01ff816	-2.499517
12	0x3f3b98d7	0.7328009
13	0xbff742a4	-1.9317212
14	0xbe99362d	-0.29924145
15	0xc02ce5a6	-2.7015166
16	0xc0162f39	-2.3466322
17	0x3f8a4e38	1.080512
18	0x3fb31ae5	1.3992583
19	0x3f15e235	0.5854829
20	0xbff72bed	-1.931028
21	0xbed4ec18	-0.41586375
22	0xbff3863b	-1.9025339
23	0xbf350924	-0.7071707
24	0xbe000c70	-0.12504745
25	0xbf4dc5d7	-0.80380005
26	0x40017666	2.0228515
27	0x3fdbb598	1.7164793
28	0xc00b73fb	-2.178954
29	0x3f46e159	0.77687603
30	0xbeb2e365	-0.34939113
31	0xbff18400	-1.8868408
32	0x40138c7d	2.3054497
33	0x3f4d36f3	0.8016197
34	0xc00cf8a5	-2.202676
35	0xbfc54e37	-1.5414494
36	0x3f25462c	0.645602
37	0x3fbb6a7e	1.4641874
38	0xbfd9707b	-1.6987451
39	0x40354dc8	2.8328724
40	0xbf202042	-0.6254922
41	0xc00d4ea5	-2.207925
42	0x3fe84e58	1.8148909
43	0x3eef0b33	0.46688232
44	0xbef17d95	-0.47166124
45	0xbfc0b794	-1.5056024
46	0x3fc964f0	1.5733929
47	0x400973d1	2.1476939
48	0xc01730f8	-2.3623638
49	0xbfe8e867	-1.8195924
50	0x3f1cc730	0.61241436
51	0x3feccce4	1.8500028
52	0xbd99a988	-0.07503039
53	0x4018a5b4	2.3851137
54	0x4011e8c0	2.279831
55	0x40046bf7	2.0690897
56	0x3f7a7d5e	0.97847545
57	0xc012ea12	-2.2955365
58	0x3ff337e8	1.9001436
59	0xbfd7b4a5	-1.6852003
60	0x3f89124c	1.0708709
61	0x400cd9cd	2.2007935
62	0xbffd92e0	-1.9810448
63	0xbfca566e	-1.5807626
64	0xbf92c234	-1.1465516
65	0x3f87f7c8	1.0622492
66	0x3f4fb743	0.8113901
67	0xbf5dbad8	-0.86613226
68	0x3fdbd1a6	1.7173355
69	0x3fd15db6	1.6356723
70	0xc0024457	-2.0354211
71	0x3fdf0b96	1.7425411
72	0xc00a53d2	-2.161366
73	0x40208bb6	2.5085273
74	0x3ffa285d	1.9543568
75	0x3f061f05	0.5239108
76	0xbeec1fc2	-0.4611798
77	0x3e9708fa	0.29499036
78	0xbfe81e18	-1.8134184
79	0xbf8ce7f9	-1.1008292
80	0xbf8a4e96	-1.0805233
81	0x3d62ed3d	0.05540203
82	0xbf75541f	-0.95831484
83	0xc00d6a11	-2.2095988
84	0x40074bf9	2.114012
85	0xbf2d278e	-0.6763848
86	0xbffe0f22	-1.9848368
87	0x3fd18331	1.6368161
88	0xbeed0435	-0.46292272
89	0x3fec8e8d	1.8481003
90	0xbf90a653	-1.1300758
91	0xbfae9dc0	-1.3641891
92	0x3fa9c57b	1.3263391
93	0xbfff19a6	-1.9929702
94	0x400c97b2	2.1967587
95	0xc000219a	-2.0020509
96	0xbeefc14a	-0.46827155
97	0xc02cb836	-2.6987433
98	0x40129c9e	2.2908092
99	0x3feb064b	1.8361295
100	0x400c5224	2.1925135
101	0x3e62dbbf	0.22154139
102	0x3fb579d0	1.4177799
103	0xc0291965	-2.642175
104	0xbf0ff0d0	-0.56226826
105	0xbfa4f358	-1.2886763
106	0x3f451424	0.7698386
107	0x3f40a231	0.75247484
108	0xc00d8d9e	-2.2117686
109	0xbff08b93	-1.8792595
110	0xc0065e73	-2.0995147
111	0xbf85ae34	-1.0443788
112	0x3f51cdc7	0.81954616
113	0x3fce2da0	1.6107674
114	0xbff4711c	-1.9097018
115	0xbfcf5b0b	-1.6199659
116	0xbf9d61c7	-1.2295464
117	0x40081024	2.1259851
118	0xbffe2f99	-1.9858276
119	0xbf4ddfe3	-0.8041975
120	0x3e18768e	0.14888975
121	0x4015dff7	2.3417947
122	0xc00fa147	-2.2442186
123	0xbf541f65	-0.82860404
124	0xbfcd7ef5	-1.6054369
125	0xbf129d01	-0.5727082
126	0xbf59ad62	-0.85030186
127	0x3f8798c9	1.0593501
128	0xbf2abff6	-0.6669916
129	0xbf587a2c	-0.8456142
130	0xc0041899	-2.0640013
131	0x3c889cb0	0.016676277
132	0xbf60502f	-0.8762235
133	0x3f803853	1.0017189
134	0xc0015921	-2.021065
135	0x3f14e6bd	0.5816458
136	0x3f981127	1.1880234
137	0xbf043bbe	-0.5165366
138	0x3ec7bf95	0.39013353
139	0xbfba4b31	-1.4554197
140	0xbe011066	-0.12603912
141	0x400bb76f	2.183071
142	0x3fffdd50	1.9989414
143	0xbff807e4	-1.9377408
144	0x3fcefcf0	1.617094
145	0xbfebe34e	-1.8428743
146	0xc00c181f	-2.1889722
147	0xbf3532a9	-0.70780426
148	0xbf20538c	-0.6262748
149	0x3f6a2e25	0.9147666
150	0x3fea3c07	1.8299569
151	0xbf42be62	-0.7607175
152	0xbf1aadbc	-0.6042135
153	0xbf3a8460	-0.7285824
154	0x401ed827	2.481943
155	0xbfe65e79	-1.7997581
156	0x40198b10	2.3991127
157	0x40080d00	2.1257935
158	0xc00fdd70	-2.2478905
159	0xbfefb357	-1.8726605
160	0xbf27b7d3	-0.6551487
161	0xbf395f87	-0.7241139
162	0x4012e7f3	2.295407
163	0xbf5eaa7b	-0.8697888

net.2.weight f4 [2, 164]
0	0x3f6502f3	0.89457625
1	0xbef05cc0	-0.46945763
2	0x3f41aece	0.75657356
3	0xbf50007d	-0.81250745
4	0xbf570412	-0.83990586
5	0xbe9e2034	-0.30883944
6	0x3f3937cc	0.72350764
7	0xbe9bb78e	-0.3041348
8	0xbf2d9aef	-0.67814535
9	0x3ddf7d9d	0.10912631
10	0xbf9c9433	-1.2232727
11	0x3f40e6df	0.7535228
12	0x3ee9b19d	0.4564332
13	0x3f243a37	0.6415133
14	0x3f2ff1e4	0.6872847
15	0xbf31abf4	-0.69403005
16	0x3f320ded	0.695525
17	0x3f3ec566	0.74519956
18	0x3f5ab35d	0.85429937
19	0xbf2edb55	-0.68303424
20	0x3f8e6e20	1.1127357
21	0x3f5be6e9	0.85899216
22	0x3f8a7a49	1.0818568
23	0xbf549592	-0.83040726
24	0x3f62e34f	0.88628095
25	0x3f4d7506	0.8025669
26	0x3f9badbd	1.2162396
27	0xbf8219bd	-1.0164105
28	0xbfa054ab	-1.2525839
29	0xbf47110b	-0.7776038
30	0x3e2095cd	0.15682144
31	0xbf4bef36	-0.7966188
32	0xbf35f10b	-0.7107093
33	0x3f330da1	0.6994267
34	0x3f2e0d6b	0.67989224
35	0x3f34103c	0.7033727
36	0xbf514cb4	-0.81757665
37	0x3f377539	0.7166324
38	0x3f6db37c	0.92851996
39	0x3f8f2ac4	1.1184926
40	0x3f46f3ec	0.77715945
41	0x3f59681e	0.84924495
42	0xbf504791	-0.813592
43	0x3e98d437	0.29849407
44	0x3f36e3ca	0.7144133
45	0xbf52d075	-0.8234933
46	0xbe2d1923	-0.1690412
47	0xbf50a780	-0.81505585
48	0xbf4e1edd	-0.80515844
49	0xbcae184e	-0.021251824
50	0x3eb283ae	0.3486609
51	0x3f695e31	0.9115935
52	0xbf627cd0	-0.884717
53	0x3f64c64f	0.89365095
54	0xbf399125	-0.724871
55	0x3f9f035f	1.2422904
56	0xbf441c1d	-0.766054
57	0x3f5db5d4	0.8660557
58	0xbf1ffd1c	-0.6249559
59	0x3f482649	0.7818342
60	0x3f44326c	0.7663944
61	0xbec91319	-0.39272383
62	0xbf960a91	-1.1721975
63	0x3eff7178	0.49891257
64	0xbe7a98f1	-0.24472405
65	0x3f557445	0.8338054
66	0x3ecca8d4	0.39972556
67	0xbe5e6f56	-0.21722159
68	0xbef42922	-0.47687632
69	0x3f2b1b24	0.6683829
70	0xbf913d8b	-1.1346906
71	0x3f3bf646	0.7342266
72	0x3f503095	0.8132413
73	0xbf476f7a	-0.77904475
74	0xbf410820	-0.7540302
75	0xbf60f0b5	-0.8786729
76	0xbe83b670	-0.25725126
77	0x3f575a00	0.84121704
78	0x3f25ce3a	0.647678
79	0x3f5f85bf	0.87313455
80	0xbe880c37	-0.2657182
81	0x3f42c5b1	0.76082903
82	0xbf79e74e	-0.9761857
83	0xbf3afa4d	-0.7303818
84	0x3f5584b8	0.8340564
85	0x3f366adb	0.712568
86	0xbf971b7d	-1.1805264
87	0x3ecbc0e8	0.39795613
88	0x3f1f59b9	0.6224628
89	0xbf5c062b	-0.8594691
90	0xbd3d644d	-0.046238232
91	0x3ec914bb	0.3927363
92	0x3f8144dd	1.009914
93	0xbf99c284	-1.2012486
94	0x3f54f4c5	0.8318599
95	0xbf791ee3	-0.97312754
96	0x3f47c14b	0.78029317
97	0x3f261462	0.6487485
98	0x3f4d1f05	0.8012546
99	0xbec0deb0	-0.37669897
100	0xbe74b878	-0.23898494
101	0x3f3e92e2	0.74442875
102	0xbf1d10cb	-0.6135375
103	0x3f92a258	1.1455793
104	0x3f2e7957	0.681539
105	0xbf4331cd	-0.76247865
106	0xbf6b753f	-0.9197578
107	0x3f3444ca	0.70417464
108	0x3f445464	0.7669127
109	0x3e8c7348	0.27431703
110	0xbe153623	-0.14571433
111	0xbf559835	-0.83435374
112	0x3ed71581	0.42008594
113	0xbedf7eae	-0.43651336
114	0xbeefa485	-0.46805206
115	0x3f013d8e	0.5048455
116	0x3f21220f	0.62942594
117	0xbf5cad23	-0.86201686
118	0xbf46f4f3	-0.7771751
119	0xbf363ee4	-0.71189713
120	0xbf60289c	-0.87561965
121	0x3f1de2b3	0.6167404
122	0xbeedb4c9	-0.4642699
123	0x3f791501	0.97297674
124	0x3f30985d	0.6898249
125	0xbf3b3040	-0.731205
126	0xbf38e122	-0.72218525
127	0x3f3e7490	0.7439661
128	0x3f1ef570	0.6209326
129	0x3f5c5709	0.86070305
130	0xbf04f45a	-0.5193535
131	0x3f626f97	0.8845152
132	0xbf043b8a	-0.5165335
133	0x3f50034c	0.8125503
134	0x3e923439	0.28555468
135	0x3f2a800e	0.66601646
136	0xbf107ee9	-0.5644365
137	0xbf5f9bb4	-0.8734696
138	0x3f4f1bce	0.809018
139	0xbeba66b8	-0.36406493
140	0x3f4bc433	0.7959625
141	0x3f62a1fe	0.8852843
142	0xbf611e39	-0.8793674
143	0xbd88d2b7	-0.06680816
144	0xbeaf00d7	-0.34180328
145	0x3f8e5c93	1.1122001
146	0x3f442a66	0.76627195
147	0x3f201700	0.62535095
148	0xbf059c39	-0.521915
149	0x3f6b18fd	0.91835004
150	0xbf332d70	-0.6999121
151	0xbf15f71c	-0.58580184
152	0xbec656d7	-0.3873813
153	0x3f5e5f7d	0.86864454
154	0x3f564b27	0.83708423
155	0x3debb926	0.11509924
156	0x3ee97551	0.45597318
157	0xbf271863	-0.65271586
158	0xbf46e6d8	-0.7769599
159	0x3f7182b7	0.9434008
160	0xbf231c22	-0.637148
161	0xbf0f7e89	-0.5605245
162	0x3f665152	0.89967835
163	0xbeb236ed	-0.3480753
164	0xbf43b26c	-0.76444125
165	0x3f27a2cb	0.6548278
166	0xbf916252	-1.135813
167	0xbea318df	-0.31854913
168	0x3ec07aae	0.37593597
169	0x3f71f52e	0.9451474
170	0xbf544af0	-0.82926846
171	0xbf540c60	-0.8283138
172	0x3f2ba082	0.6704179
173	0xbf5bb98e	-0.8583001
174	0xbf71d968	-0.9447236
175	0xbf7c1f2f	-0.9848508
176	0xbf80603d	-1.002937
177	0x3f00ff8d	0.5038994
178	0xbd9c936e	-0.076453075
179	0xbf511b24	-0.8168204
180	0xbf4d1403	-0.8010866
181	0xbf85a629	-1.0441333
182	0xbecadd5e	-0.39622015
183	0xbf4ca641	-0.79941183
184	0xbf591cb5	-0.8480943
185	0x3d695c92	0.056973048
186	0xbf524678	-0.82138777
187	0x3f206bdc	0.6266458
188	0xbd8b4826	-0.068008706
189	0x3f8286e0	1.019741
190	0x3f6b5c20	0.91937447
191	0x3f4f8364	0.8105986
192	0xbf78298d	-0.969384
193	0xbf7596d8	-0.95933294
194	0x3f5745b9	0.84090763
195	0x3f040196	0.5156492
196	0x3f4dd9cf	0.80410475
197	0xbf718604	-0.94345117
198	0xbf59308d	-0.8483971
199	0x3ed529e4	0.41633523
200	0xbea0e16b	-0.3142198
201	0xbf0e6b9d	-0.55632955
202	0xbf11f60f	-0.5701608
203	0x3eff881c	0.4990853
204	0x3f95c1f0	1.169981
205	0xbf48fdc8	-0.7851224
206	0xbec8d777	-0.39226887
207	0x3f7a23c3	0.9771082
208	0x3f77b42f	0.96759313
209	0x3e25eea5	0.16204317
210	0xbf9a8dda	-1.207454
211	0x3f53b4ef	0.8269796
212	0xbf50d609	-0.8157659
213	0xbf59831c	-0.8496568
214	0xbf4e3420	-0.80548286
215	0x3f70b544	0.9402659
216	0x3eaf9539	0.34293535
217	0x3f501d38	0.81294584
218	0x3f4db4bb	0.803539
219	0x3f794c0d	0.9738167
220	0x3f294db6	0.661342
221	0xbf500ea4	-0.8127234
222	0xbf44b9d7	-0.7684607
223	0xbee03910	-0.43793535
224	0xbf0b5940	-0.5443306
225	0x3f7b200a	0.9809576
226	0xbf5d78e5	-0.86512595
227	0x3f84723e	1.0347364
228	0x3f6a48ce	0.9151734
229	0xbf487e4d	-0.7831772
230	0xbf1c2a14	-0.61001706
231	0xbf437b0d	-0.76359636
232	0x3f75a0b4	0.9594834
233	0xbf42bcc6	-0.76069295
234	0xbf5c4e61	-0.86057097
235	0xbf2caf76	-0.6745523
236	0xbf3e1c71	-0.7426215
237	0x3f7fcb9f	0.99920076
238	0x3f5c5f09	0.8608251
239	0xbf9e2365	-1.2354552
240	0xbf6fad2c	-0.93623614
241	0x3c6646eb	0.014054994
242	0x3f3beca1	0.7340794
243	0x3e8cb3ae	0.27480835
244	0x3f5b2aae	0.85612
245	0x3e8b390c	0.2719196
246	0x3e9f5b9f	0.3112459
247	0xbf6c2d5e	-0.92256725
248	0xbf17280b	-0.59045476
249	0x3f7bdaab	0.98380536
250	0xbf5e1938	-0.8675723
251	0x3f401dd0	0.7504549
252	0x3f80223b	1.0010446
253	0x3f50a554	0.8150227
254	0x3f5d9adc	0.8656442
255	0x3f60d6f6	0.87828004

net.2.bias f4 [2]
0	0xbee1b7d8	-0.44085574
1	0xbf8c0ca7	-1.0941361

M_out.weight f4 [1, 2]
0	0x3e50d057	0.20391975
1	0x3f84f535	1.0387331
