Neural_ODE/Models/Inv_Double_Gyre/ANODE/model.pth (torch, 39099 bytes, 7 tensors)

net.0.weight f4 [128, 5]
0	0xbe2d60ac	-0.16931409
1	0xbcf5514f	-0.029945998
2	0xbe307273	-0.17231159
3	0xbdaa2a5f	-0.08308863
4	0xbe07cb58	-0.13261163
5	0x3dfa47f6	0.12220757
6	0x3d81a2fb	0.06329914
7	0xbdd36eb2	-0.10323848
8	0xbde0f87a	-0.10984893
9	0xbe19afd7	-0.15008484
10	0xbc1f80c4	-0.00973529
11	0x3d695f56	0.056975685
12	0xbd6ab46b	-0.057300966
13	0x3a1152a3	0.0005543625
14	0xbd40f247	-0.047106054
15	0x3e10e79d	0.14150853
16	0x3da5a94c	0.080889314
17	0x3e4cc717	0.19997822
18	0x3c8fc033	0.017547702
19	0xbb4f281f	-0.0031609607
20	0x3e655d48	0.22398865
21	0x3c0105bb	0.007874901
22	0xbdbe085a	-0.09278937
23	0xbe2791da	-0.16364232
24	0xbd5ccea0	-0.05390799
25	0xbe4e5fdb	-0.20153753
26	0xbd811c82	-0.063042656
27	0xbc2acead	-0.010425252
28	0xbc949e92	-0.018142018
29	0xbdc0fe0c	-0.094234556
30	0xbd19c640	-0.03754258
31	0x3e1653d8	0.14680421
32	0xbc58d43b	-0.013234193
33	0xbc5842d3	-0.013199526
34	0xbdb24326	-0.08704214
35	0xbd18bb33	-0.037287902
36	0x3e7b031b	0.24512903
37	0xbb5f2847	-0.0034051107
38	0xbe25dfe9	-0.16198696
39	0xbd3211a5	-0.04347386
40	0x3d9572b3	0.07297268
41	0xbdac24e2	-0.08405472
42	0x3e23a35c	0.15980285
43	0xbdfc23e3	-0.12311532
44	0x3bc87aaa	0.0061181383
45	0x3de0caf0	0.10976207
46	0xbe2a2fca	-0.16619793
47	0x3dcd58e0	0.10026717
48	0x3d1f2172	0.038850255
49	0xbd577eb8	-0.052611083
50	0xbdca2075	-0.09869472
51	0x3e1a6311	0.15076853
52	0x3caa2271	0.020768376
53	0xbda7fd97	-0.08202665
54	0x3d145b66	0.036219977
55	0x3cb78b7a	0.022405375
56	0xbc5dfee3	-0.013549539
57	0x3d92f7c3	0.07176163
58	0xbd775cd5	-0.060391266
59	0x3d440fcd	0.04786663
60	0xbc8f1a66	-0.017468642
61	0xbaf5ace2	-0.001874354
62	0xbe208dae	-0.15679047
63	0x3d3fc31c	0.04681693
64	0x3d85964b	0.06522807
65	0xbdd74313	-0.1051084
66	0xbd33dd35	-0.04391213
67	0x3e22cf00	0.15899277
68	0x3d35e865	0.04441108
69	0x3e609ac5	0.2193404
70	0x3df69546	0.120401904
71	0xbcd1d49f	-0.025614081
72	0x3d9ad214	0.075596005
73	0x3d865f5b	0.06561156
74	0x3b16e5d7	0.0023025179
75	0xbd0652f5	-0.032793958
76	0x3ddea0a3	0.10870483
77	0x3b40b876	0.0029406822
78	0x3e3cf592	0.18453053
79	0xbc787175	-0.015163769
80	0xbe26d6ce	-0.16292879
81	0x3cb7fe8b	0.022460243
82	0xbe7003c5	-0.23438938
83	0xbc39ca25	-0.011339699
84	0xbd94467c	-0.07240006
85	0xbe20a9bf	-0.15689753
86	0xbcc11bb4	-0.02357278
87	0x3e092f76	0.13397011
88	0xbe86da8b	-0.2633861
89	0xbc023fcc	-0.007949781
90	0x3d5022df	0.050814506
91	0x3e511d65	0.2042137
92	0xbe7644e0	-0.24049711
93	0xbe87a02f	-0.26489398
94	0xbe8a9fb6	-0.27074975
95	0x3e1916b5	0.14950068
96	0xbc1c6385	-0.009545212
97	0x3e020646	0.12697706
98	0xbd752bea	-0.059856333
99	0x3d507a17	0.050897684
100	0x3deb5021	0.11489893
101	0xbc80fbaa	-0.015745003
102	0xbd829e73	-0.06377878
103	0x3e0820e3	0.13293795
104	0x3d24bc9b	0.04021893
105	0xbe3e4f2c	-0.18584889
106	0x3ddef413	0.10886397
107	0x3d81b8db	0.063340865
108	0xbd409b1f	-0.047022935
109	0x3dbf04b0	0.09327066
110	0x3dd391b4	0.10330525
111	0x3c55ae79	0.013042086
112	0xbdf335c7	-0.118754916
113	0xbe2cd992	-0.16879871
114	0xbcf91e0d	-0.030409837
115	0x3cf33095	0.029686252
116	0x3ca93539	0.020655261
117	0xbc8c81a7	-0.017151667
118	0xbd0d5c8b	-0.034512084
119	0xbdd4fc12	-0.10399641
120	0xbe51ba4c	-0.20481223
121	0x3dac7140	0.08420038
122	0xbd6dd797	-0.05806693
123	0xbc0f4233	-0.0087438105
124	0xbd66ffcd	-0.056396294
125	0xbdcfc216	-0.10144441
126	0xbc2826f1	-0.010263191
127	0xbe20322a	-0.15644136
128	0xbddd3c40	-0.108025074
129	0xbe4ef58a	-0.20210853
130	0xbd03ebd4	-0.032207325
131	0xbc3be44f	-0.011468007
132	0x3dc7be67	0.09753113
133	0xbdb15c4d	-0.08660183
134	0x3d01141c	0.03151332
135	0x3dc057e8	0.09391767
136	0xbda870db	-0.082246505
137	0xbb944783	-0.0045251264
138	0xbd72fd08	-0.05932334
139	0x3d9ce474	0.076607615
140	0xbcdfe1d3	-0.027329361
141	0x3e67ad03	0.22624592
142	0xbdd8d55d	-0.10587571
143	0x3dd3679d	0.10322497
144	0x3c9fa710	0.019488841
145	0xbe762b86	-0.2404004
146	0x3df06197	0.11737364
147	0x3ddc3633	0.10752525
148	0xbd25c880	-0.040474415
149	0x3b049c23	0.0020234666
150	0xbe007943	-0.12546258
151	0x3b545db3	0.0032404482
152	0xbbd48b07	-0.0064863
153	0x3e27ae84	0.16375166
154	0xbb341e02	-0.0027483706
155	0x3c80819c	0.015686803
156	0x3e157289	0.14594473
157	0xbca0bf13	-0.019622361
158	0xbe19fbc3	-0.15037446
159	0xbdce110b	-0.100618444
160	0xbdc324ec	-0.09528527
161	0x3baa15e0	0.005190596
162	0x3ded257f	0.115794174
163	0x3c829c16	0.015943568
164	0xbd945594	-0.07242885
165	0xbe164480	-0.14674568
166	0xbc8f31ae	-0.017479744
167	0x3cc996a7	0.02460797
168	0x3c31c4ff	0.01085019
169	0xbdeec503	-0.11658671
170	0x3cdf4f23	0.027259415
171	0x3d793b95	0.060847837
172	0xbe226457	-0.15858589
173	0x3d22aa27	0.03971305
174	0xbe0d930d	-0.13825627
175	0x3c6bad93	0.014384645
176	0xbbbf5235	-0.0058386573
177	0x3d66d175	0.056352098
178	0x3dda3a28	0.10655624
179	0xbdfc8f13	-0.12331977
180	0x3d27ed5b	0.040997844
181	0xbcbce96a	-0.02306052
182	0x3d2e9b1f	0.042628404
183	0x3d76271f	0.060095903
184	0x3e22f07f	0.15912054
185	0x3d16402f	0.036682304
186	0x3e01a25e	0.12659594
187	0xbd12231d	-0.035678018
188	0xbd7f2a77	-0.062296357
189	0x3b82f943	0.0039969995
190	0x3ddda59b	0.10822602
191	0x3c2bc270	0.010483369
192	0x3dcf1dcb	0.101131044
193	0xbcb6b981	-0.022305252
194	0x3dba1a90	0.09087098
195	0x3cd0d743	0.02549327
196	0xbb47b4dd	-0.0030472793
197	0x3e0be963	0.13663249
198	0x3bb33e53	0.005470076
199	0x3e412197	0.1886047
200	0xbd21e2d1	-0.03952295
201	0x3e6fa609	0.23403181
202	0x3e20bb70	0.15696502
203	0x3d611667	0.054953005
204	0x3e15007b	0.14550965
205	0x3d76f12d	0.060288597
206	0x3e0d8b1d	0.13822599
207	0x3d9de91b	0.07710477
208	0xbb9b8664	-0.004746245
209	0x3d78c225	0.060732026
210	0x3e03780b	0.12838762
211	0xbdd5aee8	-0.10433751
212	0xbda1bd43	-0.07897427
213	0x3dd4940b	0.103797995
214	0x3d7cdbfb	0.061733227
215	0x3b4e0ccf	0.003144074
216	0xbe655888	-0.22397053
217	0xbe0dfcc5	-0.13865955
218	0xbe133353	-0.14375047
219	0xbe53b37d	-0.20673938
220	0xbdc0974d	-0.09403858
221	0xbc19f01e	-0.009395627
222	0xbde0a2ef	-0.10968577
223	0x3d06c49b	0.03290234
224	0xbdea7aa2	-0.114491716
225	0xbe1dcdfc	-0.15410608
226	0xbd5c02db	-0.05371366
227	0x3d4229da	0.047403194
228	0xbd814122	-0.06311251
229	0xbe103f23	-0.14086585
230	0x3e2e46d8	0.17019212
231	0xbd0c838f	-0.03430515
232	0xbd61a233	-0.055086326
233	0xbcc5781f	-0.02410513
234	0xbda16573	-0.07880678
235	0x3dc8e46d	0.09809194
236	0x3dc2e5b9	0.09516472
237	0x3de34530	0.11097181
238	0xbdde99f3	-0.10869207
239	0xbd5b22f7	-0.053500142
240	0xbd42fdbe	-0.04760527
241	0x3e0684ec	0.13136643
242	0xbd92bf87	-0.07165437
243	0xbd5af095	-0.053452093
244	0xbd6f04db	-0.05835424
245	0xbdbf5ee1	-0.093442686
246	0x3db5352c	0.08848032
247	0x3e108e6c	0.1411683
248	0xbb8f9f26	-0.0043829856
249	0x3df46152	0.11932625
250	0xbe3c19c8	-0.1836921
251	0x3bc45200	0.0059912205
252	0xbd060f41	-0.03272939
253	0xbe803163	-0.2503768
254	0x3d4ef090	0.050522387
255	0x3e32c6b4	0.17458612

net.0.bias f4 [128]
0	0x3eadf7b8	0.33978057
1	0xbef0f11f	-0.4705896
2	0x3eeae2cf	0.45876166
3	0xbeed15bd	-0.46305647
4	0xbf0d342a	-0.5515772
5	0x3f93f330	1.155859
6	0x3ec6a2c1	0.38796046
7	0x3e878fbf	0.26476857
8	0xbf4d2b85	-0.8014453
9	0x3ef5b0c1	0.47986415
10	0x3e09e4fd	0.13466258
11	0x3f38ad97	0.7213988
12	0x3f1c93d9	0.611631
13	0x3e5e1e2a	0.21691194
14	0x3eca0e92	0.3946424
15	0x3f07977e	0.52965534
16	0xbea7befc	-0.32762897
17	0x3ed12055	0.4084498
18	0xbed79ae7	-0.4211037
19	0xbf022083	-0.5083086
20	0x3ee473e4	0.44619668
21	0xbea4bcc4	-0.32175267
22	0xbf0d964a	-0.5530745
23	0x3f33ca21	0.702303
24	0xbeb22d50	-0.34800196
25	0x3ee54cb1	0.44785073
26	0x3f2e458f	0.6807489
27	0x4018bd9e	2.3865733
28	0x3e916e11	0.28404287
29	0xbeb7be27	-0.35887262
30	0xbee7824e	-0.45216602
31	0xbee93d97	-0.45554802
32	0x3effefd8	0.49987674
33	0x3ec1daf8	0.37862372
34	0x3f10d37b	0.56572694
35	0x3f29dc00	0.6635132
36	0x3f201018	0.6252456
37	0x3f1830c5	0.59449416
38	0xbeca8901	-0.3955765
39	0x3f0ec866	0.55774534
40	0xbef46f58	-0.477412
41	0x3ef9a865	0.48761287
42	0x3ec645f0	0.38725233
43	0x00000000	0.0
44	0xbf05b9be	-0.52236545
45	0x3d0388f5	0.032113034
46	0xbf0cb2b6	-0.5496019
47	0xbec8ec67	-0.3924286
48	0x3ea6eac4	0.32600987
49	0xbebb0e55	-0.36534372
50	0xbeea171e	-0.45720762
51	0xbee91da5	-0.4553043
52	0xbf0ca48e	-0.5493859
53	0x3e861144	0.26185048
54	0x3f719c05	0.9437869
55	0xbed62112	-0.41822106
56	0xbf03998c	-0.5140617
57	0xbf15c6f5	-0.5850671
58	0x3f0fb147	0.5612988
59	0x3f094eab	0.5363566
60	0xbefc0887	-0.49225256
61	0x3ec8374e	0.39104694
62	0x3ed52187	0.41627142
63	0x3e8b6f55	0.27233377
64	0x3cc2523f	0.023720859
65	0x3e8d2c61	0.2757292
66	0x3eb8ffa6	0.36132544
67	0x3f0acd12	0.5421916
68	0xbc801db2	-0.01563916
69	0x3f22a342	0.6353036
70	0xbecd5990	-0.40107393
71	0xbeb0e5a5	-0.34550205
72	0x3f1b6beb	0.60711545
73	0x3ef4ca3f	0.47810552
74	0xbed85df2	-0.42259175
75	0x3f08abdf	0.53387254
76	0xbed525fe	-0.41630548
77	0xbf48e16f	-0.78468984
78	0x3ef28223	0.4736491
79	0x3eb90b95	0.3614165
80	0x3f272924	0.6529715
81	0x3ef6717a	0.4813345
82	0xbf10260d	-0.5630806
83	0xbf09571b	-0.5364854
84	0xbb4ba59a	-0.0031074048
85	0x3f3b596f	0.7318334
86	0x3e56d8ca	0.20981136
87	0x3eca2eca	0.39488822
88	0xbec1816c	-0.37794054
89	0xbca4ceb4	-0.020118095
90	0xbef1e44d	-0.47244492
91	0xbf1588f3	-0.5841209
92	0x3ef0f456	0.47061414
93	0x3ef4cc90	0.4781232
94	0xbf9de54c	-1.2335601
95	0xbef0017f	-0.4687614
96	0x3ec6a2cf	0.38796088
97	0x3ec2f55c	0.3807782
98	0x3ed2e2cc	0.41188657
99	0x3f141b13	0.5785381
100	0x3e8a375c	0.2699536
101	0x3ec838cb	0.3910583
102	0xbebc8dd1	-0.36826947
103	0x3edcc507	0.4311907
104	0x3eaf55c9	0.34245136
105	0x3ede09e1	0.43366912
106	0x3dd94117	0.10608118
107	0x3ed3365a	0.41252404
108	0x3efd6951	0.49494413
109	0x3e9d073b	0.3066958
110	0xbed190f6	-0.4093091
111	0xbea1a760	-0.3157301
112	0x3f1ed6d6	0.62046564
113	0xbebd195f	-0.3693342
114	0x3f0278ee	0.50965774
115	0xbeeb4dac	-0.45957696
116	0xbccaa61e	-0.024737414
117	0x3ec2a400	0.38015747
118	0xbf440eee	-0.7658528
119	0xbef3f0a7	-0.4764454
120	0xbf1ae233	-0.605014
121	0x3f08adaa	0.5338999
122	0xbe807817	-0.2509162
123	0x3f136f13	0.5759136
124	0x3ea30ffd	0.31848136
125	0x3e9fc277	0.31203052
126	0x3ec55b96	0.38546437
127	0xbebc4f8d	-0.36779442

net.2.weight f4 [64, 128]
0	0xbe22873f	-0.15871905
1	0x3e238732	0.15969542
2	0xbdf0884f	-0.11744749
3	0xbd288335	-0.041140754
4	0x3da2c778	0.07948202
5	0x3dab7c77	0.08373349
6	0xbd586b0a	-0.052836455
7	0x3d07f240	0.033190012
8	0xbeccc2f4	-0.39992487
9	0xbdf80ca9	-0.1211179
10	0xbd1bdb6f	-0.038051065
11	0x3de11929	0.10991127
12	0xbe2e34eb	-0.17012374
13	0x3de53d9c	0.11193392
14	0xbc7cb65f	-0.01542434
15	0xbc619217	-0.013767741
16	0x3e2e7c1b	0.1703953
17	0xbd170542	-0.03687025
18	0x3d857bd4	0.06517759
19	0xbd21e41f	-0.039524194
20	0x3c339e56	0.010963043
21	0x3e01dfac	0.1268298
22	0x3dc9cf5d	0.098540045
23	0xbe544313	-0.20728712
24	0xbd03f0a9	-0.032211933
25	0xbd6eab47	-0.05826881
26	0xbd4f2287	-0.050570037
27	0x3d4d46cd	0.05011635
28	0xbcadd11f	-0.02121788
29	0x3e3a22db	0.18177359
30	0x3be910ef	0.0071126143
31	0x3e88a24a	0.26686317
32	0xbc539052	-0.012912827
33	0xbe376c5d	-0.17912431
34	0xbd39bde1	-0.0453471
35	0xbd356384	-0.04428436
36	0x3caf2fa5	0.021385023
37	0xbdc6f7ac	-0.097152084
38	0x3e01dbae	0.12681457
39	0xbccf2a5d	-0.025288755
40	0x3d9e7005	0.0773621
41	0xbd8e818e	-0.06958304
42	0x391a16dc	0.000146951
43	0xbe2f9328	-0.1714598
44	0xbc65783c	-0.014005717
45	0x3e2780c9	0.16357721
46	0x3b8d0227	0.004303235
47	0x3e6d77e2	0.23190263
48	0xbe78bfcb	-0.24291913
49	0x3e8f4573	0.27982673
50	0x3c239e96	0.00998654
51	0xbe3b6a89	-0.18302359
52	0xbb9552b2	-0.004556977
53	0xbd374921	-0.044747476
54	0xbecb5948	-0.39716554
55	0x3e2121d4	0.1573556
56	0x3ebc9425	0.36831775
57	0xbd8a91f8	-0.067661226
58	0xbe408090	-0.18799043
59	0x3d610fea	0.054946817
60	0x3dd93eeb	0.10607704
61	0xbdfafc2e	-0.12255131
62	0x3c1a21a1	0.009407432
63	0xbbbab62a	-0.005697985
64	0x3e3520fe	0.17688367
65	0x3cc69211	0.024239572
66	0xbd7e29df	-0.06205165
67	0xbe35229e	-0.17688987
68	0x3d44099d	0.04786073
69	0xbd3e303d	-0.046432722
70	0x3e2406f2	0.16018274
71	0x3e37401d	0.17895551
72	0x3cf21c77	0.029554589
73	0xbec2cea6	-0.38048285
74	0x3e9a0d13	0.300881
75	0xbd021195	-0.03175505
76	0xbe159eac	-0.1461131
77	0x3d637bb3	0.05553789
78	0xbd3f4c7d	-0.046703804
79	0xbd4dfa80	-0.050287724
80	0xbebbe147	-0.3669531
81	0x3c3bf75b	0.011472548
82	0x3db173ee	0.0866469
83	0xbdd89cb6	-0.10576765
84	0xbd953f21	-0.072874315
85	0xbd4dcf5c	-0.05024658
86	0xbda40bb0	-0.08010042
87	0xbe4365c8	-0.19081795
88	0x3e672af6	0.22574982
89	0x3dffaaa3	0.12483718
90	0x3e0ebafb	0.13938515
91	0x3e3c6722	0.18398717
92	0xbe2e4666	-0.17019042
93	0xbdb16210	-0.08661282
94	0xbf21a786	-0.63146245
95	0xbeafc742	-0.3433171
96	0xbe80a8c8	-0.2512877
97	0x3d400b59	0.046885822
98	0x3b14670a	0.0022644424
99	0x3c7fef46	0.015621012
100	0x3c52a426	0.012856519
101	0xbe341e32	-0.17589644
102	0x3e02a8f6	0.12759766
103	0xbde81dd4	-0.11333814
104	0xbe1992a8	-0.14997351
105	0xbdb1ada2	-0.08675696
106	0x3df797a8	0.12089473
107	0xbba87113	-0.0051404326
108	0xbe49e37a	-0.19715682
109	0x3b65f500	0.0035088658
110	0x3e2c644c	0.16835135
111	0x3e0eaa00	0.13932037
112	0x3b289f9b	0.0025729898
113	0xbec34382	-0.38137442
114	0xbd44b44c	-0.048023507
115	0x3d974e85	0.07388023
116	0xbd5e01c4	-0.054200903
117	0xbc8dfba0	-0.017331898
118	0xbd18edec	-0.037336275
119	0xbef480b5	-0.47754446
120	0xbe8b1f24	-0.27172196
121	0x3d8303fa	0.06397243
122	0xbdc01a44	-0.0938001
123	0xbdee9cd4	-0.11651006
124	0x3e1d7024	0.1537481
125	0x3db4553b	0.08805319
126	0xbe1f1fc3	-0.1553946
127	0x3e32b5aa	0.17452112
128	0x3d947a57	0.07249897
129	0xbe2913f5	-0.16511519
130	0x3c426621	0.01186517
131	0x3d925217	0.07144564
132	0xbd3b3c35	-0.045711715
133	0xbdd86d10	-0.10567677
134	0x3d625eea	0.0552663
135	0x3b69f288	0.0035697538
136	0x3cae23f2	0.021257374
137	0x3d203741	0.039115194
138	0x3ddc81db	0.107669555
139	0xbd81ff11	-0.06347478
140	0xbddd65f2	-0.1081046
141	0xbbf14633	-0.0073631047
142	0xbda6423a	-0.081181005
143	0xbe2fc2b5	-0.17164119
144	0xbd806d4f	-0.06270849
145	0x3c89f56a	0.016840655
146	0xbd58c5cf	-0.05292302
147	0xbd98622a	-0.07440598
148	0xbd53bf93	-0.05169637
149	0xbc065ccc	-0.008200835
150	0x3c7c8f52	0.01541503
151	0x3c78862b	0.015168707
152	0xbd71ff42	-0.059081323
153	0x3d20c5fa	0.039251305
154	0xbde674f8	-0.11252779
155	0x3ce5e27a	0.028062094
156	0xbd854716	-0.06507699
157	0x3e1c37e0	0.1525569
158	0xba9f5bb3	-0.0012158066
159	0x3e65fc2a	0.22459474
160	0xbdf03a7b	-0.11729904
161	0xbb9ff614	-0.0048816297
162	0xbdbd6d82	-0.092494026
163	0x3de0595b	0.10954543
164	0xbd3df8ec	-0.04637997
165	0x3da8aba3	0.08235862
166	0xbdd289ff	-0.10280227
167	0x3ccf93a3	0.025338953
168	0x3dfdbc18	0.12389392
169	0x3da6d585	0.08146194
170	0x3e2d35d0	0.16915059
171	0x3bcc55eb	0.006235828
172	0xbc961877	-0.018322213
173	0xbde3c798	-0.11122054
174	0xbe5ce888	-0.21573079
175	0xbcf7819f	-0.030213175
176	0xbd913faf	-0.07092225
177	0xbe1d77d7	-0.15377747
178	0xbdf8ff50	-0.12158072
179	0xbcde3ce0	-0.027128637
180	0x3e040bdf	0.12895153
181	0x3ccf9bf7	0.025342925
182	0xbddebfa8	-0.10876399
183	0xbdfbb800	-0.122909546
184	0x3d6077cd	0.05480175
185	0xbd7b8aea	-0.061411776
186	0x3dc84e73	0.09780588
187	0xbdc1b15e	-0.09457658
188	0x3dcc2e03	0.099697135
189	0x3d03f218	0.0322133
190	0xbd11aefa	-0.03556726
191	0x3bd1a9cb	0.0063984147
192	0x3da9e4ef	0.08295619
193	0x3d8bb2c6	0.06821208
194	0xbe024c0f	-0.12724327
195	0x3cba78ba	0.022762645
196	0xbcac6aa3	-0.021046942
197	0xbe33fa85	-0.17576034
198	0x3c448c5c	0.011996355
199	0xbde0bdc2	-0.109736934
200	0xbcc459cf	-0.023968605
201	0x3df69e0d	0.120418645
202	0x3d4f3770	0.05058998
203	0x3d8c3b57	0.06847256
204	0x3de2f61f	0.110821
205	0xbcb08095	-0.021545688
206	0x3d4783ff	0.048709866
207	0x3dde2b1a	0.10848065
208	0x3d2aba43	0.04168154
209	0xbdbbee53	-0.09176316
210	0xbdf0abdd	-0.1175153
211	0xbe1dddcf	-0.15416645
212	0x3df46bd3	0.11934628
213	0xbc9aabbd	-0.01888072
214	0xbe1d8e63	-0.15386347
215	0xbe331b1b	-0.17490809
216	0xbc16f6a4	-0.009214077
217	0x3cb9a11b	0.022659829
218	0xbd8826d3	-0.0664803
219	0x3cbae78a	0.022815485
220	0xbcdc4c7f	-0.026891945
221	0xbe2514bf	-0.16121195
222	0x3d9d6dc3	0.07686951
223	0xbdf65b00	-0.120290756
224	0xbe7ece43	-0.2488337
225	0xbd3cc599	-0.04608688
226	0xbdcec8b3	-0.10096874
227	0x3e115f92	0.14196613
228	0xbe0627ec	-0.13101166
229	0x3d19e84f	0.037575062
230	0x3ca67353	0.020318663
231	0xbe5c00ea	-0.21484724
232	0xbd656513	-0.056004595
233	0xbdf17cf8	-0.11791414
234	0x3d2fb53f	0.04289746
235	0xbd95f5d4	-0.073222786
236	0x3c99065e	0.018679794
237	0x3dc0d320	0.09415269
238	0x3d43038b	0.0476108
239	0xbdb634e3	-0.08896806
240	0x3d2e4e2e	0.042555027
241	0xbd4fcf23	-0.05073465
242	0x3d3b8734	0.045783237
243	0xbd3d3a37	-0.046198096
244	0xbd8ba8c9	-0.068193026
245	0xbd561143	-0.052262556
246	0xbe49ad7b	-0.19695084
247	0xbdd6ac82	-0.10482122
248	0x3c98dfbf	0.018661378
249	0x3d362792	0.04447133
250	0xbd7346bf	-0.05939364
251	0x3d3b9de7	0.045804884
252	0xbe05bbf3	-0.13059978
253	0x3cfe9bc7	0.03108014
254	0xbdf2ce13	-0.11855712
255	0x3d098107	0.033570316

net.2.bias f4 [64]
0	0xbe30151a	-0.1719555
1	0x00000000	0.0
2	0xbe2a0906	-0.16605005
3	0x00000000	0.0
4	0xbe1436c8	-0.14474022
5	0x3e9b5b07	0.30342886
6	0xbc0f6c0f	-0.0087537905
7	0xbdfe600a	-0.12420662
8	0xbd8924e1	-0.06696487
9	0x3e8bdcb4	0.2731682
10	0x3eaa62b4	0.3327843
11	0x3e4154e9	0.18880047
12	0xbda60d0e	-0.08107959
13	0xbe43d1a0	-0.19122934
14	0x00000000	0.0
15	0xbf33b2f6	-0.7019495
16	0xbe680217	-0.22657047
17	0x3f1e0383	0.6172411
18	0x00000000	0.0
19	0x3e100298	0.1406349
20	0xbc7a086d	-0.015260798
21	0x3e25df1a	0.16198388
22	0xbf78d2fb	-0.9719693
23	0x3da369ca	0.07979162
24	0xbe750f4a	-0.23931614
25	0x3e2baff7	0.16766344
26	0xbe120e58	-0.14263284
27	0xbd58b38a	-0.052905597
28	0xbe819f26	-0.25316733
29	0x3eae5608	0.34050012
30	0x3e9ba14e	0.30396503
31	0xbe3c6a47	-0.18399917
32	0x3eb55780	0.3541832
33	0x00000000	0.0
34	0x3f016937	0.5055117
35	0xbd80caca	-0.06288679
36	0x3e6d0e0b	0.23149888
37	0x3d8a2580	0.06745434
38	0x3f0fcfe8	0.56176615
39	0x3dff31ee	0.12460695
40	0x3dccea77	0.10005658
41	0xbe4b3cf3	-0.19847469
42	0xbdab6d68	-0.08370477
43	0x3eb0f9af	0.34565493
44	0x3eb62be7	0.3558037
45	0x3dd9cd7e	0.10634898
46	0x3e440e48	0.19146073
47	0x3f0e065b	0.5547845
48	0x3e5d4f15	0.21612199
49	0x3dec137a	0.11527152
50	0x3f26263d	0.64902097
51	0x3f0111d6	0.5041784
52	0xbe394ab4	-0.18094903
53	0x3eebc11b	0.46045765
54	0xbc4219c6	-0.011846965
55	0xbc3fada7	-0.011699117
56	0x3f07f47b	0.5310742
57	0xbc61fb8b	-0.013792883
58	0xbd88e9f4	-0.06685248
59	0x3ee29508	0.44254327
60	0x3e79f221	0.24408771
61	0xbf08572c	-0.53258014
62	0xbe8434ee	-0.25821632
63	0x3e47a5b8	0.1949681

net.4.weight f4 [2, 64]
0	0xbd1eee6f	-0.038801607
1	0xbd2f3cc1	-0.04278255
2	0x3e7fe7a5	0.24990709
3	0x3c9a8f0c	0.018867038
4	0x3c924714	0.017856158
5	0x3e10e0f7	0.14148317
6	0xbdf371c3	-0.11886933
7	0xbd765b4d	-0.060145665
8	0x3e390050	0.18066525
9	0xbd04e639	-0.03244612
10	0xbe8a2446	-0.269808
11	0xbe4d7935	-0.20065768
12	0xba9248f4	-0.0011160658
13	0x3e26815d	0.16260286
14	0x3bace10f	0.0052758525
15	0xbf33b1c1	-0.70193106
16	0xbecdf706	-0.40227526
17	0xbecf35ac	-0.40470636
18	0x3e225b7c	0.15855211
19	0x3d9b379a	0.075789645
20	0x3c183fbd	0.00929254
21	0xbd2b7b61	-0.04186571
22	0x3ed81fe7	0.4221184
23	0x3e7827fb	0.24234001
24	0xbde2fe42	-0.11083652
25	0xbe80aa68	-0.2513001
26	0x3cc49711	0.023997815
27	0xbe54ad44	-0.2076922
28	0xbe09ded7	-0.13463913
29	0xbe34ca23	-0.17655234
30	0xbe92e904	-0.28693402
31	0x3dd36a6f	0.10323035
32	0xbe44f73c	-0.19234937
33	0xbdf3dac0	-0.119069576
34	0xbefdfdf6	-0.4960782
35	0x3d24f513	0.040272783
36	0xbe53180d	-0.20614643
37	0xbf371214	-0.7151196
38	0x3cc46804	0.02397538
39	0x3e8f37b0	0.27972174
40	0xbdada461	-0.084786184
41	0xbdd3ffa9	-0.10351498
42	0xbe1dd0d3	-0.15411691
43	0x3e6f5ce4	0.23375279
44	0x3e61f52c	0.22066182
45	0xbe94c0ab	-0.29053244
46	0xbe3d8b49	-0.18510164
47	0xbf0d6b15	-0.5524152
48	0x3df28f8b	0.11843785
49	0xbd3701b1	-0.044679347
50	0x3cbbb618	0.022913978
51	0xbea620b3	-0.32446823
52	0xbe5b1e09	-0.21398176
53	0x3eaef015	0.34167543
54	0xbbaaf2fc	-0.0052169543
55	0x3dc9e3a9	0.09857876
56	0x3f6d6bf3	0.9274284
57	0xbddbc1c2	-0.10730316
58	0x3e9ddda5	0.30833164
59	0x3ca7178e	0.020396974
60	0x3d27eda8	0.04099813
61	0x3e8fe1af	0.2810187
62	0xbda3dbac	-0.080008835
63	0xbe5e2a20	-0.21695757
64	0x3e74cd02	0.2390633
65	0xbe48c72b	-0.19607227
66	0x3e091ce1	0.13389923
67	0x3e18ddba	0.14928332
68	0x3e06b4da	0.13154927
69	0x3d4e5e2c	0.050382778
70	0xbda37e2f	-0.07983052
71	0x3e8a2ae6	0.26985854
72	0x3de6d214	0.11270538
73	0x3e4323a9	0.19056572
74	0x3e5a9c77	0.21348749
75	0x3cc58bae	0.024114456
76	0x3e7df6db	0.24801199
77	0x3e8507a0	0.2598238
78	0xbc93a1fb	-0.018021574
79	0xbea944b5	-0.33060232
80	0x3d934626	0.07191114
81	0xbea6e2ec	-0.32595003
82	0xbdc0af63	-0.09408452
83	0xbe09e09c	-0.13464588
84	0xbea69ea6	-0.32542914
85	0x3cdd53dd	0.027017528
86	0xbe56c22c	-0.20972508
87	0x3d8853c9	0.06656606
88	0x3ead85a1	0.33891013
89	0xbd233a05	-0.039850254
90	0x3dab5a3d	0.08366821
91	0xbbdf1c3c	-0.0068087857
92	0xbdf65689	-0.12028224
93	0x3e0e7895	0.13913186
94	0x3e57fc68	0.21092379
95	0x3b502deb	0.003176565
96	0x3de723c6	0.1128612
97	0xbdd02018	-0.101623714
98	0xbed73235	-0.42030492
99	0x3d3c96c7	0.04604223
100	0x3cc06776	0.023486834
101	0xbe7d4463	-0.24733119
102	0x3f0e0c89	0.5548788
103	0xbe5fd7d6	-0.21859679
104	0xbea8d32f	-0.3297362
105	0x3e04458d	0.12917157
106	0xbe6458d7	-0.22299515
107	0x3eae4dbe	0.34043688
108	0x3d2d74d3	0.04234774
109	0xbe0b3ad4	-0.1359666
110	0xbd23fa8d	-0.040033866
111	0xbf116aa7	-0.56803364
112	0x3d036682	0.03208018
113	0xbe546716	-0.20742449
114	0x3ed0b552	0.40763336
115	0xbed5a248	-0.41725373
116	0x3d745c9c	0.05965863
117	0xbe9fcf0d	-0.31212655
118	0xbd266044	-0.04061915
119	0x3dd40306	0.10352139
120	0xbf5067df	-0.81408495
121	0xbde1f5cd	-0.11033211
122	0x3c65b060	0.014019102
123	0x3ee7641e	0.4519357
124	0xbe8ecc11	-0.27890065
125	0xbed0240a	-0.40652496
126	0x3c799b5e	0.015234796
127	0x3d86e7f3	0.065872096

net.4.bias f4 [2]
0	0x3de36b34	0.11104432
1	0xbda1450a	-0.07874496

M_out.weight f4 [1, 2]
0	0x3f3cb2d8	0.73710394
1	0xbf3935d3	-0.72347754
